weights/model_ar_conv1d.pt (torch, 441247 bytes, 8 tensors)

weight f4 [128, 105, 3]
0	0x3b8d8329	0.004318614
1	0xbb8464d7	-0.0040403414
2	0xbd2e6b79	-0.042582963
3	0x3cb9bcab	0.022672972
4	0xba991765	-0.0011679946
5	0xbd132f57	-0.03593382
6	0x3d087039	0.03331015
7	0x3c18a9ac	0.009317797
8	0xbbe19388	-0.006884042
9	0xbd3246a2	-0.043524392
10	0x3d3e6021	0.046478394
11	0xbd296d79	-0.041364167
12	0x3cd571dd	0.02605527
13	0xbd39b54d	-0.045338918
14	0x3bb18aab	0.005418142
15	0xbd8ed895	-0.069749035
16	0x3c1df5aa	0.00964109
17	0xbd08f30f	-0.033434924
18	0xbca42f1c	-0.020041995
19	0x3c1e3dee	0.00965832
20	0xbb61dfb8	-0.0034465622
21	0xbc3a5a76	-0.011374107
22	0x3cbce307	0.023057474
23	0xbd27f8b7	-0.041008677
24	0x3d5017ad	0.05080383
25	0xbd9a0f71	-0.075224765
26	0x3d43b6eb	0.047781866
27	0x3d29e66e	0.04147952
28	0x3d600b9d	0.054698575
29	0xbbbebdd2	-0.005820968
30	0x3c6fcafd	0.0146357985
31	0x3d3fae60	0.046797156
32	0xbbb5544b	-0.00553373
33	0xbc72ee06	-0.014827257
34	0xbb8a135e	-0.0042137345
35	0xbc86b698	-0.01644449
36	0x3c8e7a92	0.01739243
37	0xbc63c377	-0.013901583
38	0x3ce35716	0.027751487
39	0x3b80bbff	0.003928661
40	0xbd01dd49	-0.031705175
41	0x3bdf0f15	0.006807218
42	0xbd0252bc	-0.031817183
43	0x3d1de3dd	0.038547385
44	0x3bd4f484	0.006498875
45	0x3d1e04a3	0.03857864
46	0xbd64e565	-0.05588283
47	0x3c21b573	0.009869921
48	0x3ac6bebd	0.0015163046
49	0x3d2fea89	0.04294828
50	0x3c81d5cc	0.015849017
51	0xbd775db1	-0.060392085
52	0xbd7a86c1	-0.061163668
53	0xbcda284c	-0.026630543
54	0xbd9eda40	-0.07756472
55	0x3d123dcc	0.035703465
56	0x3ce6aa04	0.028157242
57	0xbb62a640	-0.0034583956
58	0x3d4dc065	0.05023231
59	0x3d45b84c	0.048271462
60	0x3d0ba650	0.034094155
61	0x3d136dd6	0.03599342
62	0xbb099c02	-0.002099753
63	0x3b3435cd	0.0027497888
64	0xbd4e3c00	-0.05035019
65	0xbcc937a0	-0.024562657
66	0xbcb6ae82	-0.022300009
67	0x3d1378a2	0.036003716
68	0xbcf7a84d	-0.03023162
69	0xbd88e235	-0.066837706
70	0x3d1b9e08	0.037992507
71	0xbc822e93	-0.015891349
72	0xbd1e1ef5	-0.03860374
73	0xbcad1720	-0.02112919
74	0xbd043ae7	-0.032282736
75	0x3ce2cffd	0.027687067
76	0xbd404e3b	-0.046949606
77	0x3b9f8a6e	0.004868797
78	0xbd723bfc	-0.059139237
79	0x3c7627e8	0.015024163
80	0x3d00ecd7	0.031475868
81	0xbd0b18b3	-0.033959102
82	0xbb84ee2c	-0.0040567126
83	0xbd372dec	-0.04472153
84	0x3c358eba	0.011081392
85	0x3cc78085	0.024353275
86	0x3d0d7409	0.034534488
87	0x3d897b8b	0.06713017
88	0x3aed9f69	0.0018129173
89	0x3d54adbe	0.051923506
90	0xbd636570	-0.05551666
91	0xbd563917	-0.05230054
92	0x3ccf1e93	0.025283134
93	0xbc822dad	-0.01589092
94	0xbc672cf8	-0.0141098425
95	0xbc9a7316	-0.018853705
96	0xbd256674	-0.04038091
97	0xbd229956	-0.039697014
98	0xbce16282	-0.027512792
99	0xbc00a36d	-0.007851464
100	0xbcf51f01	-0.02992201
101	0x3a9c7ebf	0.0011939629
102	0x3c0fa9b3	0.008768487
103	0x3d424bac	0.047435448
104	0x3d115733	0.03548355
105	0xbd8bf8b9	-0.068345495
106	0xbd79bc21	-0.06097043
107	0xbd9720c9	-0.073793
108	0xbcdaca0e	-0.026707675
109	0x3c219127	0.009861267
110	0xbd2f20ab	-0.042755764
111	0xbd26e3ff	-0.040744778
112	0xbcb674d6	-0.022272509
113	0xbbff50ba	-0.007791606
114	0xbd84e73a	-0.064894155
115	0x3cb2422d	0.02176007
116	0xbdaaae54	-0.08334032
117	0xbced19d3	-0.028942978
118	0x3c13ef88	0.009029277
119	0xbc222215	-0.009895821
120	0x3d28a4ca	0.04117278
121	0xbbd9cc3c	-0.006646661
122	0xbce855ce	-0.028361227
123	0x3cb01f44	0.021499284
124	0xbd5f50a0	-0.05452025
125	0xbd9be47f	-0.076119415
126	0x3caaf054	0.02086655
127	0xbd24d00b	-0.040237468
128	0x3c986d0a	0.018606681
129	0xbd913248	-0.070896685
130	0x3cc0dda1	0.02354318
131	0xbdafd786	-0.0858603
132	0x3d026d12	0.0318423
133	0xbc8b4bcc	-0.017003916
134	0x3d2e6fc5	0.04258706
135	0xbd3f99c5	-0.046777505
136	0xbc23484f	-0.00996597
137	0x3b801e56	0.0039098663
138	0x3c6e4349	0.014542409
139	0xb9b2946c	-0.0003406139
140	0xbd403bc0	-0.046931982
141	0x3c0d7639	0.0086341435
142	0xbd6c52b0	-0.057696044
143	0xbb6d8861	-0.0036244618
144	0x3d067db7	0.032834735
145	0xbd211fe4	-0.039337054
146	0xbbc17b33	-0.005904579
147	0x3c916f18	0.017753169
148	0xbcbd8702	-0.023135666
149	0x3cbd3bf8	0.023099884
150	0xbcab1a46	-0.020886552
151	0x3b7e7f1b	0.0038833085
152	0xbd0b8646	-0.0340636
153	0x3c8fe789	0.01756646
154	0xbd4291b2	-0.047502227
155	0xbc02c31d	-0.007981089
156	0xbc51ee26	-0.012813127
157	0x3ca6deeb	0.020369967
158	0xbcc7677e	-0.024341341
159	0xbcbcb67b	-0.023036232
160	0xbd60f97d	-0.05492543
161	0xbd6e8cb0	-0.05823964
162	0x3d8e7367	0.06955605
163	0xbd159d4b	-0.03652696
164	0xbc0b6e41	-0.008510173
165	0xbd506f81	-0.05088759
166	0x3d364308	0.04449752
167	0x3bad8372	0.0052952105
168	0x3d210fe3	0.03932179
169	0xba3f9170	-0.00073077437
170	0xbd310c2c	-0.0432245
171	0xbc3b33ed	-0.011425954
172	0x3ca66b20	0.020314753
173	0x3d088ea8	0.033339173
174	0xbcbaee15	-0.022818604
175	0x3d10e0e8	0.035370737
176	0xbd26160b	-0.040548366
177	0x3bd60d9e	0.006532385
178	0xbca5ad3e	-0.02022421
179	0xbc3f4aab	-0.011675517
180	0xbcad5f01	-0.021163465
181	0xbd57a1d9	-0.052644584
182	0xbce26982	-0.0276382
183	0xbd525382	-0.05134917
184	0xbd4433b3	-0.047900867
185	0x3c46d798	0.0121363625
186	0x3d2bfa69	0.041986857
187	0x3c4e101e	0.012577085
188	0xbd6e51df	-0.058183547
189	0xbd0d91a0	-0.034562707
190	0x3c036c38	0.008021407
191	0xbd92a505	-0.07160381
192	0x3c61175e	0.013738481
193	0x3c55e81d	0.013055828
194	0xbcb7ffdf	-0.022460876
195	0x3d23c901	0.039986614
196	0xbd64b4ce	-0.05583649
197	0xbd313a3d	-0.04326843
198	0xbd894873	-0.06703272
199	0xba625710	-0.0008634189
200	0xbcc85c88	-0.024458185
201	0x3cfc3aeb	0.030789813
202	0xbba247a4	-0.004952388
203	0xbd5d6ceb	-0.05405895
204	0xbd8264c6	-0.06366877
205	0xbd0a546c	-0.033771917
206	0xbd89f95b	-0.06737014
207	0x3d589cfd	0.05288409
208	0x3c2b6d8f	0.0104631325
209	0x3d124035	0.035705764
210	0xbd3ae93b	-0.045632582
211	0x3d3fb264	0.046800986
212	0x3c94c150	0.018158585
213	0x3b7bc756	0.0038418374
214	0x3a6c2e0c	0.0009009547
215	0x3c85222c	0.016251646
216	0x3b851018	0.0040607564
217	0x3d65b5b0	0.056081474
218	0x3cb51d13	0.02210859
219	0xbd42a3d1	-0.04751951
220	0x3d1d675d	0.038428653
221	0xbd9cfeb7	-0.076657705
222	0x3d1d373f	0.038382765
223	0x3d915fda	0.0709836
224	0x3d1da15a	0.038483955
225	0xbd0bebf8	-0.034160584
226	0xbae8684b	-0.0017731277
227	0xbbf78245	-0.007553371
228	0xbd91f995	-0.07127682
229	0xbd417b32	-0.04723663
230	0xbd808c80	-0.06276798
231	0x3c8519c9	0.016247647
232	0x3c79b50a	0.015240917
233	0xbcc85c49	-0.024458067
234	0x3c8e3e81	0.017363789
235	0x3d0a81c7	0.03381517
236	0x3cf07229	0.02935131
237	0xbc0550e9	-0.008136966
238	0x3c6da228	0.014503993
239	0xbc27239c	-0.010201361
240	0xbc97bb4d	-0.01852193
241	0xbc990db1	-0.018683286
242	0xbc1c12e8	-0.009525992
243	0xbd2e4b15	-0.042552073
244	0xbd18b890	-0.037285388
245	0xbbca937e	-0.006182133
246	0xbd527bf1	-0.05138773
247	0x3d388bd5	0.04505523
248	0xbd649d3c	-0.055814013
249	0xbd450014	-0.048095778
250	0x3cbcc9a9	0.023045378
251	0xbb877f1f	-0.004135027
252	0x3d09e36d	0.033664156
253	0xbb17e89b	-0.0023179415
254	0xbc2c6218	-0.010521434
255	0xbc69ef31	-0.014278219

bias f4 [128]
0	0x3dfdddf7	0.12395852
1	0xbd77743b	-0.06041358
2	0x3da403b7	0.08008521
3	0x3e156644	0.14589792
4	0x3dff8a80	0.12477589
5	0x3c32f839	0.010923439
6	0x3dbefbc7	0.093253665
7	0xbdcd357c	-0.10019967
8	0xbdbaf5c2	-0.09128906
9	0xbd9bb5b8	-0.076030195
10	0xbd38770d	-0.04503541
11	0x3e15f029	0.14642395
12	0x3c885331	0.016641231
13	0x3d2a50dc	0.04158102
14	0x3dce92f7	0.10086625
15	0x3de15839	0.11003155
16	0xbd07bc98	-0.03313884
17	0xbc66e74e	-0.014093233
18	0xbd4a5820	-0.04940045
19	0xbd39ab8b	-0.04532961
20	0xbc94489e	-0.018101033
21	0x3dfa94e5	0.12235431
22	0x3d705d18	0.05868253
23	0x3dbed72a	0.09318383
24	0x3d034bc7	0.03205469
25	0xbbaeb94a	-0.005332147
26	0xbc6f156a	-0.014592508
27	0x3ccff42f	0.02538499
28	0x3e1b0508	0.15138638
29	0xbacb45ee	-0.0015508512
30	0xbcb9659c	-0.022631459
31	0xbda8c161	-0.08240009
32	0x3e105c07	0.14097606
33	0xbbaea362	-0.0053295353
34	0xbd734bd5	-0.05939849
35	0xbbc88c84	-0.0061202664
36	0x3d37fc91	0.0449186
37	0x3ddf5e44	0.109066516
38	0xbd90a195	-0.07062069
39	0xbd2b233d	-0.041781653
40	0xbd3682b0	-0.044558227
41	0xbd2018e9	-0.039086256
42	0xbd27219b	-0.040803533
43	0xbd4c604f	-0.049896535
44	0x3cac85eb	0.02105995
45	0x3d2ba7d6	0.041908108
46	0xbcc7cefb	-0.024390688
47	0xbca003c0	-0.019533038
48	0x3c2e011d	0.010620383
49	0x3d876360	0.06610751
50	0xbd39dc2d	-0.04537599
51	0x3ce16786	0.027515184
52	0x3e054622	0.13015035
53	0xbcc2e9c0	-0.023793101
54	0x3d4c1b90	0.049830973
55	0x3d623104	0.055222526
56	0x3e0e0dce	0.13872454
57	0xbd58c7b6	-0.052924834
58	0x3cd0d48c	0.025491975
59	0xbd2312ad	-0.039812732
60	0xbdad8dea	-0.084743336
61	0xbcf36136	-0.02970944
62	0xbd8b19d1	-0.067920335
63	0xbcfc27d9	-0.03078072
64	0xbd2efe6b	-0.0427231
65	0x3cdd8f36	0.027045827
66	0xbcc48f60	-0.023994148
67	0x3e04d264	0.12970883
68	0x3cf3e877	0.029773934
69	0x3d8c24c0	0.06842947
70	0xbdcfd357	-0.10147732
71	0xbd634a95	-0.05549105
72	0xbb9bce80	-0.0047548413
73	0x3e0862f8	0.13319004
74	0x3e17c287	0.148203
75	0xbb89cf26	-0.004205602
76	0xbc3ef81e	-0.011655835
77	0xbd08fb02	-0.033442505
78	0xbd72eda1	-0.05930865
79	0xbc8f29b4	-0.01747594
80	0x3c3db139	0.011577898
81	0x3d2378cf	0.039910134
82	0x3e104d30	0.14091945
83	0xbdc4526d	-0.09586034
84	0xbbd5818e	-0.0065156883
85	0x3c92513d	0.017861003
86	0xbd02adcd	-0.03190403
87	0x3e410696	0.18850169
88	0xbd515834	-0.051109508
89	0x3e287111	0.16449381
90	0xbcfdb849	-0.030971663
91	0xbb6c495e	-0.0036054472
92	0x3ce68192	0.028137956
93	0xbda0e315	-0.078558125
94	0x3d94ffff	0.0727539
95	0x3e05dfe1	0.13073684
96	0x3ccb7eed	0.024840796
97	0xbda97e45	-0.08276037
98	0x3c8d0756	0.017215412
99	0x3d459788	0.048240215
100	0x3dc354de	0.095376715
101	0x3b6501c6	0.0034943684
102	0x3e1cae35	0.1530083
103	0xbcc6e64b	-0.024279734
104	0x3d840f26	0.06448202
105	0x3df8c3df	0.121467344
106	0xbd0c1204	-0.03419687
107	0xbccee99c	-0.025257878
108	0xbd84a122	-0.06476046
109	0x3e12a389	0.14320196
110	0xbc6f05f1	-0.014588819
111	0x3d0c17de	0.03420245
112	0x3d16d30d	0.036822367
113	0x3bb546e0	0.0055321306
114	0x3e17db2f	0.14829706
115	0x3e0db48c	0.13838404
116	0xbd7c8c2e	-0.061657123
117	0xbd7cad79	-0.061688874
118	0xbbaa1005	-0.005189898
119	0xbd50a157	-0.050935116
120	0xbdde3b49	-0.108511515
121	0xbde8a73f	-0.11360025
122	0x3e1a3532	0.15059355
123	0x3c496ec0	0.012294471
124	0xbcb8b8aa	-0.022548992
125	0xbd798f67	-0.060927775
126	0xbde4f525	-0.1117957
127	0x3db3e3e2	0.087836996

weight f4 [128, 128, 2]
0	0xbd32d9c3	-0.043664705
1	0xbcd24450	-0.02566734
2	0x3b617b60	0.0034405813
3	0xbcdb36dc	-0.026759557
4	0x3d0f27f8	0.034950227
5	0x3bd3fcce	0.0064693457
6	0x3ca97a30	0.020688146
7	0x3d409ca7	0.047024395
8	0x3cf25f94	0.02958659
9	0x3cdf3286	0.027245771
10	0x3d5b4dcb	0.053540986
11	0x3d1944b0	0.03741902
12	0x3d072f18	0.033003896
13	0x3c3b332a	0.011425773
14	0xbd956319	-0.07294292
15	0xbd13a2c8	-0.036043912
16	0x3dc9376b	0.09825023
17	0x3e0d6740	0.13808918
18	0x3d3a6cb7	0.045513835
19	0x3d09e392	0.033664294
20	0xbd306e9e	-0.043074243
21	0x3c3d4c38	0.0115538165
22	0x3cbf3179	0.02333902
23	0xbd58ad61	-0.052899722
24	0xbccdcc3d	-0.025121802
25	0x3ce38994	0.027775563
26	0x3db41980	0.08793926
27	0x3dc64853	0.096817635
28	0xbc8b2a84	-0.016988046
29	0x3d6febfa	0.058574654
30	0x3cf3891f	0.02972847
31	0xbcbc908b	-0.023018142
32	0xbd784fab	-0.060622852
33	0x3d48b254	0.048998192
34	0xbd429790	-0.047507823
35	0x3d30e77a	0.043189503
36	0xbd44b6a7	-0.048025753
37	0x3e02ddba	0.12779894
38	0xbcb88c83	-0.022527939
39	0x3d9f04bf	0.07764577
40	0x3ccda9b7	0.02510534
41	0xbcbacb28	-0.02280195
42	0xbcd22b44	-0.025655396
43	0xbd9c2de8	-0.076259434
44	0x3da7f53f	0.08201074
45	0x3d21fef9	0.0395498
46	0xbd8e1573	-0.06937685
47	0xba377080	-0.000699766
48	0x3cdf12ff	0.027230738
49	0x3d5f9910	0.05458933
50	0xbd38c291	-0.045107428
51	0xbc9f7840	-0.01946652
52	0x3d4491b4	0.047990516
53	0xbd1cdc94	-0.038296297
54	0x3d565668	0.052328497
55	0x3c982ff5	0.018577555
56	0x3ac35d69	0.0014905158
57	0xbd874766	-0.06605415
58	0xbd65e065	-0.056122202
59	0x3c84aa71	0.016194554
60	0x3b948fd0	0.0045337453
61	0xbadc5300	-0.0016809404
62	0x3afb51d0	0.0019174162
63	0xbdc28eda	-0.09499903
64	0xbd0b3bb7	-0.033992495
65	0x3d67d09d	0.056595434
66	0xbd398cc3	-0.045300256
67	0xbd2fafc5	-0.042892236
68	0xbcbc22f2	-0.022965882
69	0x3d7d00c5	0.061768312
70	0x3d69a540	0.05704236
71	0xbbb4b6a0	-0.0055149347
72	0x3de01b99	0.10942764
73	0x3d452285	0.048128624
74	0x3d781eb5	0.06057616
75	0x3d53a848	0.051674157
76	0x3d41e80b	0.047340434
77	0x3cd458e0	0.025921285
78	0x3d5e0e10	0.05421263
79	0x3c256238	0.010094218
80	0xbcc20b35	-0.023686985
81	0x3cf69ff9	0.030105578
82	0x3d2f4b42	0.04279638
83	0x3d0a3a72	0.033747144
84	0xbca5441d	-0.02017408
85	0xbd918d40	-0.071070194
86	0x3c76c558	0.015061699
87	0x3d5f27f2	0.054481454
88	0x3cd08f99	0.025459098
89	0xbd9e8d3b	-0.07741781
90	0x3dea1713	0.11430182
91	0x3d8f4ada	0.06996699
92	0x3d0b556e	0.03401702
93	0xbd3821c4	-0.044954076
94	0x3b7d65a0	0.003866531
95	0xbda3abd1	-0.07991756
96	0xbd7e8f61	-0.062148456
97	0xbd87ef8b	-0.06637486
98	0x3ab0b58a	0.0013481837
99	0x3ce3dc70	0.027815074
100	0x3d6f0ca6	0.058361672
101	0xbd493776	-0.049125157
102	0x3dd59dc1	0.1043048
103	0x3d365c0b	0.044521373
104	0x3cdf880d	0.027286554
105	0x3b8b5e8b	0.0042532138
106	0xbd4e769b	-0.05040608
107	0xbdaa3145	-0.08310179
108	0x3ddcd850	0.10783446
109	0x3cdfa73d	0.027301425
110	0x3cfd47d8	0.030918047
111	0x3d8ecace	0.06972276
112	0xbdba93b5	-0.09110204
113	0x3c860885	0.016361484
114	0xbd3aded9	-0.04562268
115	0x3d2cd52b	0.04219548
116	0xbd55f8e2	-0.052239306
117	0xbd9b813b	-0.07593008
118	0xbc4e3d20	-0.0125878155
119	0x3d6b7216	0.057481848
120	0xbd989f2b	-0.07452234
121	0xbd7d0601	-0.061773304
122	0xbd871f76	-0.065977976
123	0xbc0ea013	-0.008705157
124	0x3e28158d	0.16414471
125	0x3c886fad	0.016654814
126	0x3d7dd09b	0.06196652
127	0x3c08072d	0.008302492
128	0xbcc71b68	-0.02430506
129	0x3cfa5e20	0.03056246
130	0x3b2f9220	0.0026789978
131	0xbd89e28f	-0.06732666
132	0x3d6ac4e8	0.05731669
133	0x3d037ed9	0.032103393
134	0x3ddd5c7d	0.10808656
135	0x3dfdd75f	0.123945944
136	0x3da65ea7	0.08123522
137	0x3d55bfa3	0.052184712
138	0x3c8c8f70	0.01715824
139	0xbdc5aac7	-0.09651714
140	0xbc8d3dce	-0.017241385
141	0x3e037c4d	0.12840386
142	0x3ca1c6d8	0.019748136
143	0xbc02d72f	-0.007985874
144	0x3d2de75c	0.04245697
145	0xbd68e09a	-0.05685482
146	0x3bfa8004	0.007644655
147	0x3d1fe461	0.03903616
148	0xbd77ffe6	-0.06054678
149	0xbcf98d87	-0.030462993
150	0x3d833451	0.06406463
151	0x3d9b63c3	0.075873874
152	0x3d58f8d4	0.052971676
153	0xbccc9c57	-0.024976892
154	0x3d3a5878	0.045494527
155	0xbd87cf1d	-0.066313006
156	0xbd3f8250	-0.046755135
157	0xbc584dc8	-0.013202138
158	0x3dcaeda6	0.09908609
159	0x3d1341a1	0.03595126
160	0xbd070c0c	-0.032970473
161	0xbd7b7e10	-0.06139952
162	0x3d6ace6e	0.057325773
163	0xbcb4b49d	-0.02205878
164	0xbd4d4eda	-0.050124027
165	0xbc121a57	-0.008917413
166	0xbdb7a4d1	-0.08966983
167	0xbdd4f5b8	-0.1039843
168	0x3db0f2c7	0.08640056
169	0x3cf19c22	0.029493395
170	0xbdd9a572	-0.10627259
171	0xbdcae2d7	-0.099065475
172	0xbcbe98d4	-0.023266234
173	0x3d794d60	0.060864806
174	0xbe066adb	-0.131267
175	0xbe2b0b4d	-0.1670353
176	0xbd7b4798	-0.061347574
177	0x3d0b9b16	0.03408345
178	0xbc0f8f8e	-0.008762253
179	0xbd92c60c	-0.07166681
180	0x3c76933d	0.015049753
181	0xbdb30872	-0.08741845
182	0x3c148006	0.009063726
183	0xbc94e519	-0.018175649
184	0xbc84d179	-0.016213166
185	0xbcaf88ac	-0.021427475
186	0xbcf94fa6	-0.030433487
187	0x3d221d9c	0.03957902
188	0xbd42e110	-0.047577918
189	0xbd8389ce	-0.064227685
190	0x3ca38f33	0.019965744
191	0xbcf29c8d	-0.029615665
192	0x3d329410	0.043598235
193	0x3d406d4e	0.04697924
194	0x3db1554c	0.08658847
195	0x3d99d1d9	0.075107284
196	0x3df43644	0.11924413
197	0x3db77572	0.08957948
198	0xbca22628	-0.019793585
199	0x3c6f9c5a	0.014624679
200	0x3cff4641	0.03116143
201	0x3d28ab84	0.041179195
202	0x3d3d20ff	0.046174046
203	0x3d85fe76	0.06542675
204	0x3d97bf57	0.07409542
205	0x3cdf40e1	0.027252616
206	0xbd1966e1	-0.03745163
207	0xbcc6d628	-0.02427204
208	0x3d4cb7e6	0.049980067
209	0x3bee8f5e	0.0072802743
210	0x3b6619d6	0.0035110614
211	0xbd515180	-0.051103115
212	0xbd014b36	-0.031565867
213	0x3c2c5bf0	0.0105199665
214	0xbcec78ef	-0.02886626
215	0xbe0ba148	-0.13635743
216	0xbd822d0b	-0.063562475
217	0xbd50673d	-0.050879706
218	0xbd297bc6	-0.041377805
219	0x3d05c48b	0.03265814
220	0x3d321a50	0.043482125
221	0xbd6ef7dc	-0.058341846
222	0xbb9adf46	-0.0047263233
223	0x3d110e39	0.035413954
224	0x3d8b34cc	0.067971796
225	0x3da0cf39	0.078520246
226	0xbd450b3e	-0.048106425
227	0xbdc23596	-0.09482877
228	0xbd015d18	-0.03158292
229	0xbc85e0c4	-0.016342528
230	0xbd141a62	-0.036157973
231	0x3e076dcf	0.13225482
232	0xbd2dc86f	-0.042427476
233	0x3def1fd1	0.116759904
234	0xbd6ff5f2	-0.05858416
235	0xbc3c0888	-0.011476643
236	0x3cdad84c	0.026714467
237	0x3cf97178	0.030449614
238	0xbdeb93e1	-0.11502815
239	0xbdac854c	-0.08423862
240	0xbd9a9c27	-0.07549315
241	0x3c1df75b	0.009641494
242	0xbcaefd47	-0.021361006
243	0x3c2e50f6	0.01063942
244	0xbd85009a	-0.06494255
245	0xbd8cfa36	-0.068836614
246	0x3d9cb8f5	0.07652465
247	0x3df4fd28	0.11962348
248	0x3c45b8f9	0.012068027
249	0xbdfb0f08	-0.12258726
250	0xbcc6d958	-0.02427356
251	0xbb074d69	-0.0020645505
252	0x3cf1d888	0.029522195
253	0xbda377d2	-0.07981838
254	0x3d1ffa7a	0.039057232
255	0x3e09906d	0.13434

bias f4 [128]
0	0xbd53521e	-0.051591985
1	0x3dc4835f	0.095953695
2	0xbc3aaca0	-0.011393696
3	0xbddcb1c7	-0.10776096
4	0x3d2796e9	0.040915404
5	0x3dadcc4c	0.08486232
6	0xbdb4e554	-0.08832803
7	0x3d78064d	0.060552884
8	0xbce6fa77	-0.028195603
9	0xbe119e55	-0.14220555
10	0xbda6da26	-0.08147077
11	0x3e28e76e	0.16494533
12	0xbd77c0ef	-0.06048673
13	0x3d85f2ec	0.06540474
14	0x3dc0dcf9	0.09417147
15	0xbcd814d1	-0.026377114
16	0xbcea363b	-0.028590312
17	0x3dbabf50	0.09118521
18	0xbd929b37	-0.07158511
19	0x3e1af884	0.15133864
20	0xbd7bbe9b	-0.061461072
21	0xbda05ea5	-0.07830552
22	0xbe3bc188	-0.18335545
23	0xbe359ab3	-0.17734794
24	0x3e001469	0.12507786
25	0x3be972c4	0.007124277
26	0xbd568ab7	-0.052378383
27	0x3e25e3dc	0.16200203
28	0x3da74214	0.081669
29	0x3b9639f8	0.004584547
30	0x3d702e9c	0.0586382
31	0xbd895930	-0.06706464
32	0x3e0e53dd	0.13899179
33	0x3cfed6bc	0.031108253
34	0x3da1dfd2	0.079040185
35	0x3da05cb9	0.078301854
36	0x3db3a188	0.08771044
37	0xbe1d6264	-0.15369564
38	0xbd710cce	-0.058850102
39	0xbd45de48	-0.048307687
40	0x3c3dbb5a	0.011580313
41	0x3cc19b81	0.02363372
42	0xbdcf0998	-0.10109252
43	0x3e348f19	0.17632712
44	0x3dec20ed	0.115297176
45	0x3c5a2804	0.0133152045
46	0xbe225ae6	-0.15854988
47	0x3e31482b	0.17312686
48	0x3ce2e7d0	0.027698427
49	0x3d6927aa	0.056922592
50	0xbe0981ab	-0.1342837
51	0xbd883666	-0.06651001
52	0x3dc431cb	0.0957981
53	0xbd6547cd	-0.055976678
54	0xbda0ec76	-0.07857601
55	0x3d8c0a1d	0.068378665
56	0xbd32a148	-0.04361084
57	0xbc77bc00	-0.015120506
58	0xbe09fbee	-0.1347501
59	0xbe224b8e	-0.15849134
60	0x3e10e232	0.14148787
61	0xbca269a8	-0.019825771
62	0x3dace423	0.08441951
63	0xbe38991b	-0.18027155
64	0xbc43873a	-0.011934096
65	0xbe0cba6f	-0.13742994
66	0xbd3cb872	-0.04607434
67	0x3e4900d9	0.1962923
68	0x3c4b790e	0.012418998
69	0x3c81388a	0.01577403
70	0xbd71ddc2	-0.059049375
71	0x3dd25de2	0.10271813
72	0x3baae5d5	0.0052153864
73	0xbe445d54	-0.19176227
74	0x3c2dc87d	0.010606882
75	0x3e232e41	0.15935613
76	0x3dad0eb5	0.08450071
77	0xbdbe1dc9	-0.09283025
78	0xbda54914	-0.08070579
79	0xbd9100ce	-0.070802316
80	0x3db874e1	0.09006668
81	0x3dbbe0ab	0.091737114
82	0xbe010e76	-0.12603173
83	0x3e26317c	0.16229814
84	0xbae53d47	-0.0017489576
85	0x3c23c971	0.009996758
86	0x3e2ff816	0.17184481
87	0xbcf510fa	-0.029915322
88	0xbd1ecb21	-0.038767938
89	0x3d001fa6	0.031280182
90	0x3c88543e	0.016641732
91	0xbe028bbd	-0.12748618
92	0x3d8994f8	0.06717867
93	0x3ddedeff	0.10882377
94	0xbdb07c09	-0.08617408
95	0xbdab8c68	-0.0837639
96	0xbe322e85	-0.17400558
97	0xbdd342bd	-0.10315464
98	0xbda0462a	-0.07825883
99	0x3dc71c19	0.09722156
100	0x3e1f2309	0.15540709
101	0xbda8c276	-0.082402155
102	0xbe07953e	-0.13240525
103	0x3dacd002	0.08438112
104	0xbe152372	-0.14564303
105	0x3e42ed94	0.19035941
106	0x3df7d57b	0.12101265
107	0x3da1a9c3	0.078937076
108	0xbc029997	-0.007971189
109	0x3b27d33d	0.0025608086
110	0x3e03455c	0.12819427
111	0xbe468382	-0.19386104
112	0xbe1a9d2d	-0.1509902
113	0x3e1da8ff	0.15396498
114	0x3da433f2	0.0801772
115	0xbe22541c	-0.15852398
116	0xbc812922	-0.015766684
117	0xbc74e20f	-0.014946475
118	0xbd9110a3	-0.07083251
119	0x3ddb6a40	0.10713625
120	0xbd998ecc	-0.074979395
121	0xbd89e934	-0.06733933
122	0x3d9ca850	0.076492906
123	0xbdbc2e63	-0.09188535
124	0x3d4cb691	0.049978796
125	0xbd7d72c4	-0.061877027
126	0xbd8d338b	-0.06894597
127	0x3d9fcc6e	0.07802664

weight f4 [128, 128, 2]
0	0xbd59151d	-0.05299865
1	0xbd8e5300	-0.06949425
2	0xbd15f5d2	-0.036611386
3	0x3d24fc0e	0.04027944
4	0xbd7eb6ed	-0.06218617
5	0xb9256f9c	-0.00015777204
6	0x3ccb2b24	0.024800844
7	0xbc4d13c8	-0.012516923
8	0xbdacd6ca	-0.08439405
9	0x3d0c7491	0.034290854
10	0xbd8a36d0	-0.06748736
11	0xbc3aeb63	-0.01140866
12	0xbcafe730	-0.021472543
13	0xbcf19774	-0.029491164
14	0x3c54c98f	0.012987508
15	0x3d0a8678	0.033819646
16	0xbd2b7b00	-0.04186535
17	0x3d10bbce	0.035335355
18	0xbbba038d	-0.005676693
19	0xbcf190e8	-0.029488042
20	0x3c3df9c8	0.011595197
21	0x3d017a10	0.03161055
22	0xbdcf0082	-0.10107519
23	0xbd30156d	-0.042989183
24	0x3d55d612	0.052206106
25	0xbcfe84a0	-0.0310691
26	0xbd32a0a4	-0.04361023
27	0x3d3a9718	0.04555425
28	0xbcadb875	-0.02120612
29	0xbd969ee1	-0.073545225
30	0x3d5e0d0a	0.054211654
31	0x3d5cb576	0.053883992
32	0xbcb4a9fc	-0.022053711
33	0xbd3c02fc	-0.045901284
34	0xbda06710	-0.078321576
35	0xbcd4e9fa	-0.025990475
36	0xbd308ae5	-0.04310121
37	0x3ba552e6	0.0050452827
38	0x3c00ad8f	0.00785388
39	0xbd5d7299	-0.054064367
40	0xbd921b3c	-0.07134101
41	0xbd9fc51f	-0.0780127
42	0xbd92434a	-0.071417406
43	0xbc66df1e	-0.014091281
44	0xbd69caf7	-0.057078328
45	0x3cf5a082	0.029983763
46	0xbc2e6afe	-0.010645626
47	0xbd268311	-0.04065234
48	0xbd28d9c6	-0.04122331
49	0x3c240839	0.010011726
50	0xbd0cddf6	-0.034391366
51	0xbc7cc041	-0.015426696
52	0x3d24ab5c	0.040202484
53	0x3d5c0077	0.05371138
54	0xbd722d85	-0.059125442
55	0x3c5b0438	0.013367705
56	0x3bb5247a	0.00552803
57	0xbc057957	-0.008146605
58	0xbc080d23	-0.008303913
59	0xbc17f0d9	-0.009273731
60	0xbd9e884f	-0.077408426
61	0xbb5a8357	-0.0033342445
62	0xbd20489c	-0.039131746
63	0x3d0fbbf0	0.03509134
64	0xbc198745	-0.00937063
65	0xbd212fe9	-0.03935233
66	0x3c140b95	0.0090359645
67	0x3cc9a668	0.024615481
68	0xbd8a2090	-0.06744492
69	0xbc97a582	-0.018511537
70	0xbc9d2257	-0.019181414
71	0x3cfdec64	0.030996509
72	0x3c104bfa	0.008807177
73	0xbd8715a7	-0.06595927
74	0xbdbd7094	-0.09249988
75	0x3cc57c8e	0.024107244
76	0x3b58dd20	0.0033090785
77	0x3d7225b6	0.059117995
78	0xbc4a5dc0	-0.012351453
79	0xbd4beabb	-0.049784403
80	0x3d0563c3	0.032565843
81	0xbc9eacdd	-0.019369537
82	0xbc762b3d	-0.015024957
83	0xbd941642	-0.07230808
84	0xbd18a954	-0.03727086
85	0xbdae7902	-0.08519174
86	0xbd127b17	-0.03576192
87	0xbd6a8f45	-0.05726554
88	0xbda1782e	-0.078842506
89	0xbdb66a69	-0.08907015
90	0xbd7f104a	-0.062271394
91	0xbda91e8a	-0.08257778
92	0xbd03b134	-0.032151416
93	0x3d787a42	0.06066347
94	0xbd943c2a	-0.07238038
95	0xbd077a87	-0.033075836
96	0x3b8c1db6	0.0042760028
97	0x3d083851	0.033256833
98	0xbd365b6b	-0.044520777
99	0x3c35e012	0.011100786
100	0x3cc8fe6e	0.024535384
101	0xbce09cd1	-0.027418526
102	0xbd8fffed	-0.07031236
103	0xbcb2ebc4	-0.021840937
104	0x3c06af8e	0.008220566
105	0x3ce4bdf4	0.027922608
106	0x3cb6940c	0.022287391
107	0xbd5d7c40	-0.054073572
108	0xbd6b830f	-0.057498034
109	0xbd3ab41d	-0.045581926
110	0x3bc91bdb	0.006137354
111	0xbc52d782	-0.012868764
112	0x3c9311c7	0.017952813
113	0x3c84fe49	0.016234534
114	0x3ce7c25c	0.02829092
115	0xbc5444ea	-0.0129558835
116	0x3af9acfb	0.0019048745
117	0xbd7c7be4	-0.06164159
118	0x3c8df655	0.017329374
119	0xbbd71ae8	-0.006564487
120	0x3b91fdeb	0.004455318
121	0xbcb55efc	-0.022140019
122	0xbd39bd1b	-0.04534636
123	0xbbc7e729	-0.0061005545
124	0xbd16fc04	-0.036861435
125	0xbcabd082	-0.020973448
126	0x3c7c8a05	0.015413766
127	0xbdc8e0bd	-0.098084904
128	0xbc1c3b2d	-0.009535593
129	0xbc765253	-0.015034276
130	0x3cb7180c	0.022350334
131	0x3cc296a0	0.023753464
132	0x3d7aeca8	0.06126085
133	0x3cb82e38	0.022482976
134	0xbbf7c6a0	-0.0075615197
135	0xbd58c986	-0.052926563
136	0xbcc4823e	-0.023987886
137	0x3d088a43	0.03333498
138	0x3d7e68b9	0.06211159
139	0x3c9f7868	0.019466594
140	0xbccb60df	-0.024826465
141	0x3cae0eed	0.021247352
142	0x3ba1be2e	0.0049360013
143	0x3ca81fc6	0.020522963
144	0x3bae1d56	0.0053135557
145	0xbd79d5a7	-0.06099477
146	0xbd0c6eb7	-0.034285273
147	0xbca38819	-0.019962357
148	0xbcdb2348	-0.026750222
149	0xbbba048f	-0.005676813
150	0x3d371a99	0.0447031
151	0xbd365ba6	-0.044520997
152	0xbdb17501	-0.08664895
153	0x3d11a126	0.035554074
154	0xbd1d01cd	-0.038331795
155	0xbd467439	-0.048450682
156	0xbc224998	-0.009905241
157	0xbc9f4580	-0.01944232
158	0xbb4bef37	-0.0031117925
159	0xbd594432	-0.05304355
160	0xbd801f2c	-0.062559456
161	0xbc8e416d	-0.017365182
162	0xbd49e14a	-0.049287118
163	0x3c5b1876	0.013372531
164	0xbce10ea8	-0.027472809
165	0xbc9965cb	-0.018725296
166	0xbd94dfd7	-0.072692566
167	0xbda15a94	-0.078786045
168	0xbd9aa440	-0.075508595
169	0x3d0111f8	0.031511277
170	0xbc91f6f8	-0.01781796
171	0xbd013899	-0.031548116
172	0xbdd136a6	-0.102155015
173	0xbd369411	-0.0445748
174	0xbd321a87	-0.04348233
175	0xbcebbb2f	-0.02877578
176	0xbaa08880	-0.0012247711
177	0xbd1313f0	-0.035907686
178	0xbda5d876	-0.08097927
179	0xb967b65c	-0.00022097811
180	0xbd92004d	-0.071289636
181	0xbd51ab9a	-0.051189043
182	0xbd9a6ba1	-0.0754006
183	0xbca4f2fe	-0.020135399
184	0xbbbde28b	-0.0057948283
185	0x3b4425ae	0.0029929685
186	0xbd2d7528	-0.042348057
187	0xbd4df382	-0.050281055
188	0x3d1148de	0.035469882
189	0xbd77dd36	-0.060513698
190	0xbd55c027	-0.052185204
191	0xbd6a838b	-0.057254355
192	0xbbb07e8e	-0.0053861802
193	0x3d6c6620	0.05771458
194	0x3d727cdc	0.059201106
195	0x3da5cfac	0.08096251
196	0x3cd859b0	0.026409954
197	0xbcf276cd	-0.029597664
198	0xbdb5ae99	-0.088711925
199	0xbd49bc1a	-0.049251653
200	0xbaf8d22b	-0.0018983533
201	0xbd40f567	-0.047109034
202	0x3d18b0c2	0.037277944
203	0xbae86434	-0.0017730058
204	0x3ce2ba82	0.027676824
205	0xbd19703a	-0.037460543
206	0xbcc797fb	-0.024364462
207	0x3c9e1f4b	0.019302031
208	0xbb1beb6d	-0.0023791448
209	0xbc414eba	-0.011798555
210	0xbd203848	-0.039116174
211	0xbd470201	-0.048585895
212	0xbd870b6b	-0.06593975
213	0x3ce1c1e1	0.027558269
214	0xbdb083e7	-0.086189084
215	0xbdbf67b3	-0.09345951
216	0xbc637d88	-0.013884909
217	0x3d138992	0.03601987
218	0xbc978638	-0.018496618
219	0x3bd2cf00	0.0064333677
220	0xbc1f4ae9	-0.00972245
221	0xbdaa1ba1	-0.08306051
222	0x3d031887	0.032005813
223	0x3d19b1d6	0.037523113
224	0xbcbc1afa	-0.022962082
225	0xbd402533	-0.046910476
226	0xbd441155	-0.04786809
227	0xbdba7dca	-0.091060236
228	0xbc3ef60a	-0.01165534
229	0xbd02e420	-0.03195584
230	0xbd13a5c0	-0.036046743
231	0xbd1b1ef8	-0.03787133
232	0xbd8428cd	-0.06453095
233	0x3cb5c5ad	0.022188986
234	0xbc336dce	-0.010951472
235	0x3c307d2e	0.010772033
236	0x3c353680	0.011060357
237	0xbcb13465	-0.021631429
238	0xbd25fa4f	-0.040521916
239	0xbd82da52	-0.063892975
240	0xbd7f787a	-0.062370755
241	0x3ca9cf4b	0.020728728
242	0x3d4284c6	0.047489904
243	0x3cdd9be8	0.027051881
244	0xbc4030c2	-0.011730375
245	0x3d011f34	0.0315239
246	0x3d08c45c	0.033390388
247	0xbd31b309	-0.04338363
248	0x3d0761cd	0.033052254
249	0xbd39520a	-0.045244254
250	0xbc08b0f8	-0.008342974
251	0xbc927134	-0.017876245
252	0xbd3e1234	-0.04640408
253	0x3d23d0f0	0.03999418
254	0xbd504834	-0.05085011
255	0xbca8aa97	-0.020589156

bias f4 [128]
0	0x3beb324f	0.007177628
1	0xbcf4314d	-0.029808665
2	0xbda38c5a	-0.07985754
3	0x3bc90b73	0.006135398
4	0x3ba84102	0.0051347027
5	0xbd4ffedf	-0.050780173
6	0xbbb89342	-0.005632789
7	0x3e11c470	0.14235091
8	0xbced7e66	-0.028990936
9	0xbda93958	-0.082628906
10	0x3d2b5c41	0.041836027
11	0x3dca0a46	0.09865241
12	0xba082230	-0.00051930826
13	0xbe133f45	-0.14379604
14	0xbd8a0168	-0.067385495
15	0xbd0649ab	-0.0327851
16	0xbc8e4c2b	-0.017370304
17	0x3c9d05b4	0.019167759
18	0x3e3c3622	0.18380025
19	0xbdf0bebd	-0.117551304
20	0xbd146c2b	-0.03623597
21	0xbbdd0048	-0.0067444183
22	0x3db81545	0.08988432
23	0xbd27d4f7	-0.040974583
24	0xbc0f5250	-0.008747652
25	0xbcea516b	-0.028603276
26	0xbddf1f78	-0.10894674
27	0x3d936f42	0.07198955
28	0x3dc87e5f	0.097897284
29	0x3e102b67	0.14079057
30	0xbc8a5ac6	-0.016888987
31	0x3b1c99de	0.0023895423
32	0xbd0504ab	-0.032475155
33	0x3da71020	0.081573725
34	0x398397a7	0.00025099257
35	0x3de7791e	0.11302398
36	0xbcb1b554	-0.02169291
37	0xbba7daf5	-0.0051225373
38	0x3dbe102a	0.09280427
39	0xbd73c604	-0.059515014
40	0xbd1f4b27	-0.03889003
41	0xbd5c91d2	-0.053850003
42	0x3d9987f0	0.07496631
43	0xbd8e290e	-0.06941424
44	0xbd9fb242	-0.07797672
45	0x3d20d99e	0.039270036
46	0xbdfab20c	-0.12240991
47	0x3e05892e	0.13040611
48	0x3d64aeb0	0.055830657
49	0x3ddf8126	0.10913305
50	0x3da323d2	0.079658166
51	0x3dee1f25	0.11627034
52	0x3d8dd20a	0.069248274
53	0x3bf0f730	0.007353686
54	0x3d830489	0.063973494
55	0xbdbf8016	-0.09350602
56	0x3dc5cbcd	0.096580125
57	0xbe017ea7	-0.1264597
58	0xbc9eeaa5	-0.019398997
59	0x3d112c9f	0.035442945
60	0xbd18bba0	-0.03728831
61	0xbd943afa	-0.072378114
62	0x3d3fb9b8	0.046807975
63	0xbc9cee91	-0.019156726
64	0xbd7cba23	-0.06170095
65	0xbe05e82e	-0.13076851
66	0xbd22cb2d	-0.039744545
67	0xbdda98a8	-0.10673648
68	0xbb098366	-0.002098286
69	0x3c931c55	0.017957846
70	0x3d2e2667	0.042517092
71	0x3d5322c1	0.051546816
72	0xbdd734ad	-0.10508094
73	0xbd370192	-0.044679232
74	0xbc360c5a	-0.011111343
75	0xbd86cc4f	-0.065819375
76	0xbd7854e1	-0.06062782
77	0xbddaeb33	-0.10689392
78	0x3e0c7d35	0.13719638
79	0xbdeb07c5	-0.11476091
80	0x3d1d4c80	0.038403034
81	0x3d95f499	0.07322044
82	0xbd844da3	-0.064601205
83	0x3e3016c3	0.17196183
84	0xbc8a185f	-0.016857324
85	0xbe053946	-0.1301013
86	0xbca15bdc	-0.019697122
87	0x3e542ff3	0.20721416
88	0xbd6cd9ac	-0.057824776
89	0xbe0316aa	-0.12801614
90	0x3dc60e04	0.09670642
91	0x3e352d23	0.17693
92	0xbe13560c	-0.14388293
93	0x3d4f5cc3	0.050625574
94	0xbe2549a8	-0.16141379
95	0x3e14f19a	0.14545289
96	0x3e2c85be	0.16847894
97	0x3d9c690a	0.07637222
98	0x3cb932f8	0.022607312
99	0xbccc3bd2	-0.024930868
100	0xbd5584bf	-0.05212855
101	0xbe086c9a	-0.13322678
102	0xbd8ce115	-0.068788685
103	0x3dd3ebc8	0.10347706
104	0xbdb080b2	-0.08618297
105	0xbd4cb807	-0.04998019
106	0xbd7887d8	-0.060676426
107	0xbbf4801b	-0.0074615604
108	0x3d32737f	0.043567177
109	0xbd1f09b1	-0.0388276
110	0xbd54d124	-0.051957265
111	0x3e1a8e82	0.15093425
112	0x3dc49377	0.09598439
113	0xbd7b2c2b	-0.06132142
114	0x3b42068e	0.0029605958
115	0xbd8c7cf4	-0.068597704
116	0x3d880fac	0.06643614
117	0xbd7dd411	-0.06196982
118	0x3cefe9e3	0.02928633
119	0x3e0a454b	0.13502996
120	0xbd88ae61	-0.06673885
121	0x3d3e0548	0.046391755
122	0x3daa3d58	0.08312482
123	0x3dc07189	0.09396655
124	0xbc952cd5	-0.018209854
125	0xbd162b83	-0.03666259
126	0xbcf71f56	-0.03016631
127	0xbcf110c6	-0.029426944

weight f4 [4, 128]
0	0xbd4f0003	-0.05053712
1	0xbcf2f969	-0.029659944
2	0x3da24732	0.07923736
3	0x3c7162a0	0.014732987
4	0x3dd859cb	0.10564002
5	0x3d2cd304	0.042193428
6	0xbe223f54	-0.1584447
7	0x3d012f8c	0.031539485
8	0xbd995994	-0.07487789
9	0xbd22a364	-0.039706603
10	0xbdd47bad	-0.10375152
11	0xbd308037	-0.043091025
12	0xbd5928aa	-0.053017296
13	0xbcbea335	-0.023271183
14	0x3d4294b9	0.047505114
15	0xbe2c4e3a	-0.16826716
16	0xbc8f878d	-0.01752069
17	0xbd380018	-0.044921964
18	0x3d9ccb51	0.07655967
19	0xbdcc7d8a	-0.09984882
20	0xbd3d836f	-0.046267923
21	0x3da60b63	0.081076406
22	0x3df8e6d3	0.12153401
23	0x3d30a27a	0.0431237
24	0xbdfa41d9	-0.12219591
25	0xbc1ea42f	-0.009682699
26	0xbd3629e3	-0.04447354
27	0xbe4e537b	-0.20149033
28	0xbdc23d7d	-0.09484384
29	0x3df78408	0.1208573
30	0x3dbbd4e4	0.09171465
31	0xbd957ad4	-0.07298818
32	0x3b9e939d	0.004839374
33	0x3ddc4d1d	0.10756896
34	0xbd38443c	-0.04498695
35	0x3dd703d4	0.10498777
36	0x3c999723	0.018748825
37	0xbb2f4629	-0.00267447
38	0xbdd0f1f4	-0.10202399
39	0x3e007956	0.12546286
40	0xbcf564e9	-0.029955344
41	0xbccd5917	-0.025066895
42	0x3d2c5450	0.042072594
43	0x3d0fc7bc	0.03510259
44	0xbba563d8	-0.0050473027
45	0xbdc487b6	-0.09596197
46	0xbcd9d9dd	-0.026593143
47	0xbcd72537	-0.026262863
48	0x3dd3f81e	0.10350059
49	0x3e054913	0.13016157
50	0x3e3631b9	0.17792405
51	0x3d9041d4	0.07043806
52	0x3e243462	0.16035607
53	0x3e4a032b	0.19727771
54	0xbdcc03fb	-0.09961697
55	0xbc628bc1	-0.013827265
56	0x3e117459	0.1420454
57	0xbe48d11b	-0.19611017
58	0xbd80a063	-0.06280591
59	0x3e45c500	0.19313431
60	0xbd7234bf	-0.059132334
61	0xbe38ce74	-0.18047506
62	0x3ba4f95a	0.005034608
63	0x3d89a45d	0.06720803
64	0xbd5f3f97	-0.054504003
65	0x3cfab971	0.030606003
66	0xbd5ce84a	-0.053932466
67	0x3da3f81b	0.08006307
68	0x3d82572c	0.06364283
69	0x3e034c93	0.1282218
70	0xbda60cde	-0.08107923
71	0x3dfbe4ac	0.12299475
72	0xbe0b9007	-0.13629161
73	0xbd3dcff7	-0.04634091
74	0x3e3d8de0	0.18511152
75	0xbe342697	-0.17592846
76	0x3c8414aa	0.016123135
77	0xbcdf2b74	-0.0272424
78	0xbdb5e304	-0.088811904
79	0xbda05009	-0.078277655
80	0xbe1f70be	-0.15570351
81	0xbe42b397	-0.1901382
82	0x3c0736fc	0.008252855
83	0x3d7a4742	0.061103113
84	0x3d43bede	0.047789447
85	0xbd3970f3	-0.045273732
86	0x3d8b11d7	0.06790512
87	0x3e0cf594	0.13765556
88	0xbc82d960	-0.015972793
89	0x3bce3488	0.0062928833
90	0xbd2b2984	-0.04178764
91	0xbe02fb7c	-0.12791246
92	0xbe34010e	-0.17578527
93	0xbd362405	-0.044467945
94	0xbe1e842b	-0.15480106
95	0x3e04db41	0.12974264
96	0x3c8a8b4b	0.016912123
97	0xbb6c98d1	-0.0036101828
98	0x3b48170a	0.003053131
99	0x3d74bbfe	0.059749596
100	0x3cd4acb4	0.025961258
101	0xbdbc35fc	-0.09189984
102	0xbd740dd6	-0.059583507
103	0xbe0343b1	-0.12818791
104	0xbd111f90	-0.03543049
105	0xbc9d22d9	-0.019181656
106	0x3cc234c8	0.023706809
107	0xbdbbb328	-0.09165031
108	0x3e22ba0d	0.15891285
109	0x3dcfa4ec	0.10138878
110	0xbafcdb46	-0.0019291423
111	0x3c0dd50b	0.00865675
112	0x3d4fdbe3	0.05074681
113	0x3d33d730	0.04390639
114	0xbd1f06a5	-0.038824696
115	0x3dcd9272	0.10037698
116	0x3b644116	0.0034828833
117	0xbe279935	-0.16367038
118	0x3ce5377e	0.027980562
119	0x3dca0ab8	0.09865326
120	0xbe034fd0	-0.12823415
121	0xbcaf5571	-0.021403046
122	0xbe357743	-0.17721276
123	0xbd753baf	-0.05987137
124	0xbcb19b01	-0.021680357
125	0x3d83dde1	0.064388044
126	0xbd207c56	-0.039181076
127	0xbe0e1b02	-0.1387749
128	0xbc20cd4d	-0.0098145725
129	0xbd185900	-0.037194252
130	0xbc8c75e4	-0.017146058
131	0xbd29f448	-0.04149273
132	0xbe02b46a	-0.12764135
133	0x3d8f82c7	0.07007366
134	0x3cf7ebae	0.030263748
135	0xbe472a41	-0.19449712
136	0xbd0489ae	-0.032357864
137	0x3d446ce3	0.047955405
138	0x3d2893f7	0.041156735
139	0xbe1de2c7	-0.1541854
140	0x3cc9a82c	0.024616323
141	0x3e000eac	0.12505597
142	0xbb8f08fb	-0.004365084
143	0x3d2d1ca0	0.042263627
144	0x3d1bb116	0.03801068
145	0x3dcdd984	0.100512534
146	0xbe4d1bef	-0.20030187
147	0x3e060caf	0.13090776
148	0xbd3d796e	-0.046258382
149	0xbd6dbfef	-0.05804437
150	0xbe5448c7	-0.20730887
151	0xbd335dc3	-0.04379059
152	0xbd9205b7	-0.07129996
153	0x3caabe52	0.020842705
154	0x3dfc7e20	0.12328744
155	0x3e0495ea	0.12947813
156	0xbe25762e	-0.16158363
157	0xbdf8b6a7	-0.12144213
158	0xbc4dff2d	-0.012573046
159	0xbd108ed2	-0.035292454
160	0x3deb0bf0	0.11476886
161	0x3cdbf16e	0.026848521
162	0xbd91e5ab	-0.07123884
163	0x3d65f60e	0.05614286
164	0x3e109629	0.14119782
165	0xbd9fd235	-0.07803766
166	0xbe2aaa31	-0.16666485
167	0x3d74f687	0.05980542
168	0x3cf7349c	0.030176453
169	0x3dc17d7f	0.094477646
170	0xbe08e2c9	-0.13367762
171	0xbce6cceb	-0.028173884
172	0x3e131683	0.14364056
173	0xbdc829c1	-0.09773589
174	0x3e0bd19c	0.13654178
175	0xbe0d33c6	-0.13789281
176	0x3d3f03bc	0.04663442
177	0xbe51428d	-0.20435543
178	0xbe23f705	-0.16012199
179	0xbe694a47	-0.22782241
180	0xbe111ead	-0.14171858
181	0xbde068d7	-0.109574966
182	0x3dc5ac61	0.09652019
183	0x3e17d8f3	0.14828853
184	0xbdefdf06	-0.1171246
185	0xbca1c3bb	-0.019746652
186	0xbda048c0	-0.07826376
187	0xbdb52e21	-0.08846689
188	0xbc21e494	-0.009881157
189	0x3cacebd7	0.021108551
190	0x3a0b3a43	0.0005311111
191	0xbdbd826d	-0.09253392
192	0xbce97c70	-0.02850172
193	0x3dbb806e	0.091553554
194	0xbd181864	-0.037132636
195	0x3debad6e	0.115076885
196	0x3cfb0602	0.030642513
197	0xbd831866	-0.06401138
198	0x3dd7390c	0.10508928
199	0xbdef20c1	-0.11676169
200	0x3e3bf767	0.18356095
201	0x3e5055bb	0.20345204
202	0xbd4ed0e3	-0.05049218
203	0x3e4f9fc5	0.20275791
204	0xbcc7312c	-0.02431544
205	0x3d0b2100	0.033967018
206	0xbe347004	-0.17620856
207	0xbd0699e7	-0.032861616
208	0x3d9cd4a3	0.07657745
209	0x3dd350e5	0.10318164
210	0x3d2bcf30	0.041945636
211	0xbe4be813	-0.19912748
212	0x3d78b0c9	0.06071547
213	0x3d916682	0.0709963
214	0xbd927754	-0.07151666
215	0xbe53b5ed	-0.20674868
216	0xbce5936c	-0.028024398
217	0x3e134eba	0.143855
218	0x3de59526	0.112100884
219	0x3c3609e1	0.011110754
220	0x3de94bf1	0.11391438
221	0x3d66c572	0.056340642
222	0x3e0e5fef	0.13903783
223	0xbe457167	-0.19281541
224	0xbe3e4525	-0.18581064
225	0xbd9dd6c3	-0.07706978
226	0x3cc51f42	0.024062756
227	0x3dee3394	0.116309315
228	0x3def5f9a	0.116881564
229	0xbd04dc24	-0.032436505
230	0x3df25f8b	0.118346296
231	0xbdc59694	-0.09647861
232	0x3c9f21e6	0.019425344
233	0xbd57c07c	-0.0526738
234	0xbd51a830	-0.051185787
235	0xbdef6b80	-0.11690426
236	0x3b820a06	0.00396848
237	0x3d1d91c4	0.03846909
238	0xbc37f1c2	-0.011227073
239	0xbdcb7233	-0.09933891
240	0xbe474f90	-0.19463944
241	0x3d57cdef	0.052686628
242	0xbb993bf6	-0.0046763374
243	0x3d7952da	0.06087003
244	0xbdf972a7	-0.12180071
245	0x3e195a1c	0.1497578
246	0xbd1cf6d0	-0.038321316
247	0x3ae4c6db	0.0017454283
248	0x3d9cc546	0.076548144
249	0xbd1aee1e	-0.037824742
250	0xbd08e116	-0.033417784
251	0xbe19ac73	-0.1500719
252	0xbd6124f7	-0.054966893
253	0xbd3bf98d	-0.045892287
254	0x3d163c27	0.03667846
255	0x3dba59fb	0.09099194

bias f4 [4]
0	0xbca25095	-0.019813815
1	0xbd0d3d27	-0.034482148
2	0x3e583f5f	0.21117924
3	0x3a453653	0.00075230486
